data.pth (torch, 5546 bytes, 6 tensors)

l1.weight f4 [8, 54]
0	0xbe917809	-0.28411892
1	0x3e89139f	0.26772782
2	0x3f361bae	0.71135986
3	0xbd550728	-0.052008778
4	0xbe89ed46	-0.26938838
5	0xbcc72112	-0.024307761
6	0x3f265286	0.6496967
7	0x3f3bb8d9	0.7332893
8	0x3f0b9635	0.5452607
9	0x3f13be97	0.5771269
10	0xbd99009b	-0.074708186
11	0x3f385aee	0.7201375
12	0xbd5fa921	-0.054604653
13	0x3ed7ba0a	0.42134124
14	0xbe9479bb	-0.28999123
15	0x3e393dfb	0.1809005
16	0xbf25c5dd	-0.6475504
17	0x3f59dd9d	0.8510378
18	0x3f3b1d9c	0.73092055
19	0xbdb35d33	-0.08758011
20	0x3f728204	0.9472964
21	0xbe2f0f4f	-0.17095684
22	0xbdee702b	-0.11642488
23	0xbe245078	-0.16046321
24	0xbe8d6aeb	-0.27620634
25	0x3ecf2a38	0.40461898
26	0x3f0f4355	0.55962116
27	0x3e9354e1	0.28775695
28	0xbed02c12	-0.40658623
29	0x3f117acc	0.56828
30	0xbe53436a	-0.20631185
31	0x3e8dbbfd	0.27682486
32	0x3f7eecd4	0.9958012
33	0xbeb20466	-0.3476898
34	0xbd6dcb56	-0.058055244
35	0x3e9f9928	0.31171536
36	0xbdd4f497	-0.10398214
37	0x3f095fe3	0.53661937
38	0x3e7f4354	0.24928027
39	0xbeb38bae	-0.35067505
40	0x3f26cb51	0.65153986
41	0x3e871424	0.26382554
42	0x3e935e5d	0.2878293
43	0xbf06f506	-0.52717626
44	0xbe01a11c	-0.12659115
45	0x3ece7955	0.40326944
46	0xbdcb366d	-0.0992249
47	0x3f868bfa	1.0511467
48	0x3f08d7b2	0.53454125
49	0x3d2054b0	0.039143264
50	0xbe896bc6	-0.26840037
51	0xbeeb4a46	-0.45955104
52	0xb8924f0f	-6.976548e-05
53	0xbe91c540	-0.28470802
54	0x3f0c6ea6	0.54856336
55	0xbe7c1c2f	-0.24620126
56	0x3e953758	0.29143786
57	0xbe304f25	-0.17217691
58	0x3ee8da25	0.4547893
59	0x3f0b448e	0.5440148
60	0x3eb29130	0.34876394
61	0xbf0416d9	-0.5159736
62	0x3dc34572	0.0953473
63	0x3efc4257	0.49269363
64	0xbe60a8a8	-0.21939337
65	0xbbac3a05	-0.00525594
66	0x3f15cd4c	0.58516383
67	0xbf34d505	-0.7063754
68	0xbf30b010	-0.6901865
69	0x3e1bde4f	0.15221523
70	0x3f08c66c	0.5342777
71	0xbedae374	-0.42751658
72	0xbe95f102	-0.29285437
73	0xbe8e5fbf	-0.27807423
74	0xbf041cc5	-0.516064
75	0xbed72e6b	-0.42027602
76	0x3eebb9b3	0.46040115
77	0xbed1ab8e	-0.40951198
78	0x3f4ec377	0.80767006
79	0xbf1e63b7	-0.618709
80	0x3dadf1e1	0.084934
81	0xbd77cc9e	-0.060497873
82	0xbe982694	-0.29716933
83	0xbeb8fb29	-0.3612912
84	0x3f0cadd2	0.5495273
85	0xbea6aa51	-0.32551816
86	0xbe33751e	-0.17525145
87	0x3eef4224	0.4673015
88	0x3f171c85	0.5902789
89	0xbec5883f	-0.3858051
90	0xbecd40a0	-0.40088367
91	0x3e105230	0.14093852
92	0x3e67b5da	0.22627965
93	0x3f162912	0.5865642
94	0xbf00641e	-0.50152767
95	0x3e89c6f2	0.26909596
96	0xbe0bd76f	-0.136564
97	0x3f808358	1.0040083
98	0x3f0e0277	0.5547251
99	0x3ebf4cff	0.3736343
100	0xbd3f3466	-0.04668083
101	0xbeb002c4	-0.3437711
102	0xbd9d7234	-0.07687798
103	0x3f3fdae9	0.74943405
104	0x3ebcc2a6	0.36867255
105	0x3ec0bce1	0.37644103
106	0x3eb1934b	0.34682688
107	0x3f34fcbd	0.7069815
108	0xbd879b28	-0.066213906
109	0x3ec7add8	0.3899982
110	0xbd3b4a9f	-0.04572546
111	0x3d1bced7	0.038039055
112	0xbeeb904b	-0.46008524
113	0xbe0beea4	-0.13665253
114	0xbe466850	-0.1937573
115	0x3f10906f	0.5647039
116	0x3e174259	0.14771403
117	0xbeea2e08	-0.45738244
118	0xbe957ab3	-0.29195175
119	0x3ed9e239	0.42555407
120	0xbd7470dc	-0.059677944
121	0x3ee2ffad	0.4433569
122	0x3f246ba5	0.6422675
123	0x3f50948b	0.8147666
124	0xbf125c62	-0.57172215
125	0x3f31d1bd	0.6946066
126	0xbe542ea5	-0.20720918
127	0xbdaa5d94	-0.0831863
128	0x3e98223a	0.29713613
129	0xbebff290	-0.37489748
130	0xbddf90fc	-0.109163254
131	0xbebffd90	-0.3749814
132	0xbeac306a	-0.33630687
133	0x3e6a2470	0.22865462
134	0x3e37a6d5	0.17934735
135	0x3f50d3b8	0.8157306
136	0xbe39327d	-0.18085666
137	0x3e6f1b28	0.23350203
138	0xbe2b8404	-0.16749579
139	0x3f0d4c07	0.55194134
140	0xbe46d5fa	-0.19417563
141	0xbe42c1a5	-0.19019182
142	0xbd4d382e	-0.050102405
143	0xbed5cbf1	-0.41757157
144	0xbf21550f	-0.63020414
145	0xbe9a6456	-0.30154675
146	0x3ef4bb56	0.47799176
147	0x3f3f174d	0.7464493
148	0x3ead082b	0.33795294
149	0x3f32459f	0.69637483
150	0x3ebd4fd5	0.3697497
151	0xbe83f8e4	-0.25775826
152	0xbdae4223	-0.08508708
153	0xbc980be3	-0.018560356
154	0xbd439a42	-0.047754534
155	0x3d4e1699	0.05031452
156	0x3f2c40f3	0.67286605
157	0x3ea39f4f	0.3195748
158	0xbe8fa645	-0.2805654
159	0xbd574cbe	-0.05256342
160	0xbe174fa5	-0.14776476
161	0xbf182d24	-0.5944388
162	0xbe3c15be	-0.18367669
163	0x3c03d144	0.008045498
164	0x3e89e8d6	0.26935452
165	0xbe3ad901	-0.18246843
166	0xbe3597ad	-0.17733641
167	0x3e995fa9	0.29955795
168	0x3f2d49c8	0.67690706
169	0x3f585b13	0.8451397
170	0xbbba9299	-0.0056937453
171	0x3e2c40c8	0.16821587
172	0xbe4509e2	-0.19242051
173	0xbead6595	-0.33866563
174	0x3ef71604	0.48258984
175	0xbda50ef8	-0.08059496
176	0x3f0ba4d0	0.5454836
177	0x3f049aae	0.5179852
178	0x3efddc27	0.49582025
179	0x3d6b76c8	0.057486326
180	0xbececb35	-0.4038941
181	0xbe2ac732	-0.1667755
182	0x3f1d6ec2	0.6149713
183	0xbeb7d86c	-0.35907304
184	0xbccc3ccb	-0.024931332
185	0xbeb7d937	-0.3590791
186	0xbdcc9aac	-0.09990439
187	0xbe6cdee5	-0.23131903
188	0xbe3c80c0	-0.18408489
189	0x3d2f3316	0.04277333
190	0x3c1ec17b	0.009689684
191	0x3ed68b8d	0.41903344
192	0x3e4f2f39	0.20232858
193	0x3d419ebe	0.04727053
194	0xbea5ad59	-0.32358816
195	0x3e548edd	0.20757623
196	0xbdbe9e6c	-0.0930756
197	0xbeb13bce	-0.3461594
198	0xbec3c48f	-0.382359
199	0x3ed37f33	0.41307983
200	0x3ec801d4	0.39063895
201	0x3f0833b5	0.532039
202	0x3f0383c8	0.5137296
203	0xbf3a4105	-0.7275546
204	0x3d380ca1	0.04493392
205	0xbec85e1b	-0.39134297
206	0xbe1a3c0d	-0.1506197
207	0x3f0c53cf	0.5481538
208	0xbe3ec9b3	-0.1863163
209	0xbe956bb5	-0.29183736
210	0x3e89513e	0.26819795
211	0xbe571e3a	-0.21007624
212	0x3f0822a0	0.53177834
213	0x3ed5aa6e	0.4173159
214	0x3d4aa5ee	0.04947465
215	0xbccf2e20	-0.025290549
216	0xbe82551c	-0.25455558
217	0xbe46b0bf	-0.19403361
218	0x3f1671fd	0.5876768
219	0x3ed3d531	0.4137359
220	0x3f324038	0.6962924
221	0x3e184604	0.14870459
222	0x3f11d042	0.569584
223	0x3e7c9c24	0.24668938
224	0x3ee7ae64	0.45250237
225	0x3e90e666	0.2830078
226	0x3f2fa8ed	0.68617135
227	0x3ef17cbe	0.47165483
228	0x3e4f6c0e	0.20256063
229	0xbed6f7ac	-0.41985834
230	0xbf3da37e	-0.74077594
231	0xbf1f32ea	-0.62187064
232	0x3f34cd8a	0.7062613
233	0xbdf9850e	-0.12183581
234	0x3f041e27	0.5160851
235	0x3f2b13ef	0.6682729
236	0x3ec55065	0.385379
237	0x3f557cac	0.8339336
238	0xbe1ad4a3	-0.15120177
239	0x3f693f85	0.9111255
240	0x3ea3ea18	0.32014537
241	0x3f115744	0.5677378
242	0x3f063796	0.5242857
243	0xbf33f21d	-0.7029131
244	0x3f2e1d55	0.6801351
245	0x3e26334a	0.16230503
246	0x3eb95b62	0.36202532
247	0xbe7d6489	-0.24745382
248	0xbe969623	-0.2941142
249	0x3f171e0c	0.5903022
250	0x3dcc256f	0.099680774
251	0x3f4be9ee	0.79653823
252	0x3f647ad1	0.892499
253	0x3f13f7bb	0.5779988
254	0xbe82c2f8	-0.25539374
255	0xbeeb2719	-0.45928267

l1.bias f4 [8]
0	0x3f06f2fb	0.5271451
1	0x3f041481	0.51593786
2	0x3ebff3c1	0.37490657
3	0x3eb7dd71	0.35911134
4	0x3f641fde	0.89111125
5	0x3f22d1e9	0.6360155
6	0x3f1ba737	0.60802025
7	0x3f874103	1.0566715

l2.weight f4 [8, 8]
0	0xbe6f4854	-0.23367435
1	0x3ea4a42f	0.32156512
2	0x3eec868a	0.46196395
3	0xbe0182b4	-0.12647516
4	0xbd4ba007	-0.04971316
5	0x3fad812d	1.3555046
6	0xbec4237e	-0.38308328
7	0x3febb8e9	1.8415805
8	0x3f9119e3	1.1336025
9	0xbf862884	-1.0481114
10	0x3f91e880	1.1399078
11	0x3f9486fd	1.1603695
12	0xbf240b1b	-0.64079446
13	0x3f7ce79c	0.9879091
14	0xbe9287e5	-0.28619304
15	0x3f432e82	0.7624284
16	0x3f738922	0.95131123
17	0xbf8e9021	-1.1137735
18	0xbf5eba67	-0.8700318
19	0x3e083dee	0.13304874
20	0x3fb56eab	1.4174398
21	0xbf1c80fc	-0.61134315
22	0x3fa3d22c	1.2798514
23	0x3f7f04d8	0.99616766
24	0x3f9252e7	1.143155
25	0xbf040802	-0.5157472
26	0x3fb83503	1.4391178
27	0xbe3493a7	-0.1763445
28	0xbe99480b	-0.29937777
29	0x3fa33bc1	1.275261
30	0xbd8eafdd	-0.06967137
31	0x3db98d87	0.09060197
32	0x3c89b1e0	0.01680845
33	0xbe35fa6d	-0.17771311
34	0xbe59cb12	-0.21268871
35	0x3caf2f00	0.021384716
36	0xbe18c6ba	-0.14919558
37	0xbe7535db	-0.23946325
38	0xbe6727cd	-0.22573777
39	0xbe8313c9	-0.25601032
40	0x3f86fecc	1.0546508
41	0xbe954401	-0.29153445
42	0xbee86eab	-0.45396933
43	0xbc025b50	-0.007956341
44	0x3f131bb0	0.5746412
45	0xbec2f872	-0.38080174
46	0x3f1e63c5	0.61870986
47	0xbf91bf7c	-1.1386561
48	0x3f23a682	0.63925946
49	0xbf54600b	-0.8295905
50	0x3ec49776	0.38396806
51	0xbf9e632c	-1.2374015
52	0x3efcec0b	0.49398836
53	0x3efb0dee	0.49034065
54	0x3f988180	1.191452
55	0xbf466557	-0.7749838
56	0xbdcd372a	-0.10020287
57	0x3f88de41	1.0692827
58	0xbf1853e9	-0.59503037
59	0x3f232eb2	0.63743126
60	0x3f377bff	0.7167358
61	0x3f8697f4	1.0515122
62	0x3f4e4164	0.8056853
63	0xbf8d006a	-1.1015751

l2.bias f4 [8]
0	0x3f8575a6	1.0426528
1	0xbe3c4a42	-0.18387702
2	0x3f0317f3	0.5120842
3	0xbf09ee67	-0.538794
4	0xbea6b5e6	-0.32560652
5	0xbeb2fe35	-0.3495957
6	0x3dac92b0	0.08426416
7	0x3e0324a5	0.12806948

l3.weight f4 [9, 8]
0	0x3d15e6da	0.03659711
1	0x3f071b94	0.52776456
2	0x3f12484f	0.57141584
3	0xbdccfaf7	-0.10008805
4	0xbe814392	-0.25246865
5	0xbf63f22e	-0.8904141
6	0xbf8a6e18	-1.0814848
7	0xbfe3c28d	-1.7793747
8	0x3e842eaa	0.25816852
9	0xbfb270f5	-1.3940722
10	0x3f8bc4a0	1.091938
11	0xbf9b063e	-1.211128
12	0x3e91a821	0.28448585
13	0xbf4cae45	-0.79953414
14	0x3e972d97	0.2952697
15	0xbf76ebcf	-0.96453565
16	0xbed11987	-0.40839788
17	0xbf1ef2e1	-0.62089354
18	0xbf668eb2	-0.90061486
19	0xbeadadd5	-0.33921686
20	0x3e457e02	0.1928635
21	0xbf891049	-1.0708095
22	0xbf2eafdc	-0.6823709
23	0x3f953c09	1.1658946
24	0xbf96a433	-1.176886
25	0xbf306310	-0.6890116
26	0x3e30e2f0	0.1727407
27	0x3de05c5c	0.10955116
28	0xbdff9946	-0.124804065
29	0x3f3d16af	0.7386274
30	0x3f041bcc	0.51604915
31	0xbeb71c51	-0.3576379
32	0xbdb995c2	-0.09061767
33	0xbe0c57b7	-0.13705336
34	0xbd18cafb	-0.037302952
35	0xbc22f477	-0.00994598
36	0x3ea2da07	0.31806967
37	0xbcb65116	-0.022255462
38	0x3e1069e5	0.14102896
39	0x3d09cfdb	0.033645492
40	0x3e6a9459	0.22908153
41	0x3f3ce493	0.73786277
42	0xbfb71a02	-1.4304812
43	0x3ee25da6	0.44212073
44	0x3e65da3a	0.22446528
45	0xbf187532	-0.59553826
46	0xbf9add99	-1.2098876
47	0xbfdf0696	-1.7423885
48	0x3fa26623	1.268742
49	0xbf670867	-0.90247196
50	0xbf454b15	-0.7706769
51	0xbf8bf9ac	-1.0935569
52	0xbd82cff4	-0.0638732
53	0xbe226fdb	-0.15862982
54	0xbf3ea06c	-0.74463534
55	0xbf0b0316	-0.54301584
56	0xbfab27c3	-1.3371509
57	0xbfbd7ec1	-1.4804307
58	0x3eefb075	0.46814314
59	0xbff98912	-1.9494956
60	0x3db02f94	0.08602825
61	0x3ee3de6b	0.4450563
62	0x3ee94615	0.4556128
63	0x3f1794ca	0.5921141
64	0xbdca5fce	-0.098815545
65	0x3ea70eae	0.32628387
66	0xbf9b721a	-1.2144196
67	0x3ea75ac1	0.32686427
68	0xbde35ec6	-0.11102061
69	0xbf645e99	-0.89206845
70	0x3f3efad6	0.74601495
71	0xbf19af77	-0.60033363

l3.bias f4 [9]
0	0x3d8c912b	0.06863626
1	0x3d4d0a43	0.050058614
2	0x3ed4a5ff	0.41532895
3	0xbe5a09dc	-0.21292824
4	0xbf2ed052	-0.6828662
5	0xbd607320	-0.05479729
6	0x3f223614	0.63363767
7	0xbe6a76d5	-0.22896893
8	0xbe28091e	-0.16409728
