backend/util/chatbot/data.pth (torch, 5546 bytes, 6 tensors)

l1.weight f4 [8, 54]
0	0xbebbe4cd	-0.36698
1	0x3f2d6766	0.677359
2	0x3fa693e8	1.3013887
3	0xbcae4e1d	-0.021277482
4	0xbec51ec2	-0.3850003
5	0xbebcd736	-0.36882943
6	0x3feab28b	1.8335737
7	0xbe93a09b	-0.2883347
8	0x3f22dc3e	0.6361731
9	0x3f3f88f5	0.74818355
10	0x3bc8f144	0.0061322767
11	0x3f8c36a0	1.095417
12	0xbed58960	-0.4170637
13	0x3f2b79bb	0.6698262
14	0x3f22a8ae	0.63538635
15	0x3f8d4f6c	1.1039863
16	0xbe165aa7	-0.14683019
17	0x3f784a5c	0.96988463
18	0x3ebe6a23	0.3719035
19	0x3d1ac2e2	0.03778351
20	0xbe46fd81	-0.19432642
21	0xbd898fc1	-0.06716872
22	0xbe692c1e	-0.22770736
23	0xbdb69eba	-0.089169934
24	0xbf0e7182	-0.5564195
25	0x3f1f2d82	0.62178814
26	0x3f2998a3	0.6624853
27	0x3f60c115	0.8779462
28	0x3e5fea46	0.21866712
29	0xbc2b1880	-0.010442853
30	0x3e2b86e5	0.16750677
31	0x3f0f5df8	0.5600276
32	0x3f63275e	0.88731945
33	0x3db702c6	0.08936076
34	0xbd6e3013	-0.058151316
35	0x3f2681ed	0.65042
36	0x3eab2bd5	0.3343188
37	0x3faafe18	1.3358793
38	0x3ef4cde6	0.47813338
39	0x3f33a9d4	0.7018101
40	0x3d0a13af	0.033710178
41	0x3efe28f7	0.4964063
42	0x3f1c6084	0.6108477
43	0xbf824c47	-1.0179528
44	0xbe85e458	-0.26150775
45	0x3f83c02d	1.0293022
46	0x3e42ca12	0.19022396
47	0x3f61860c	0.88095164
48	0x3fdcebfc	1.7259517
49	0x3ed98ada	0.42488748
50	0xbeab928a	-0.33510238
51	0x3e0a473c	0.13503736
52	0xbe430ac9	-0.19047083
53	0xbf1fc138	-0.62404203
54	0xbe728ca7	-0.23686467
55	0x3eda7868	0.42669988
56	0xbe1c244f	-0.15248226
57	0x3eff1590	0.49821138
58	0x3f126fc4	0.5720179
59	0x3f071815	0.5277112
60	0xbf357751	-0.7088519
61	0x3ed15409	0.40884426
62	0x3e7c6afe	0.2465019
63	0xbda38280	-0.07983875
64	0x3f00ea26	0.5035728
65	0xbd9384eb	-0.072030865
66	0x3f052096	0.5200285
67	0x3f2611e7	0.64871067
68	0xbf4dec9f	-0.8043918
69	0xbf6ecad6	-0.93278253
70	0xbea3e152	-0.32007843
71	0x3f337c63	0.70111674
72	0x3f4fccbf	0.8117179
73	0x3f0cbd12	0.54976
74	0x3f027857	0.50964874
75	0x3f4aeaa6	0.79264295
76	0xbe95ed10	-0.29282427
77	0x3f46d2c8	0.77665377
78	0x3f13ea80	0.57779694
79	0x3ed14147	0.40870115
80	0xbaca1819	-0.0015418559
81	0x3da8a6c4	0.08234933
82	0x3f00ef7d	0.5036543
83	0x3e6cf04b	0.2313854
84	0xbc92a9ad	-0.017903173
85	0x3eb5142d	0.35366955
86	0xbbc2caea	-0.0059445994
87	0xbe4cd112	-0.20001629
88	0x3f463788	0.77428484
89	0xbf08560d	-0.53256303
90	0xbea9bf77	-0.3315389
91	0xbe1ee5ce	-0.15517351
92	0x3f2986a4	0.6622107
93	0xbf2b0035	-0.6679719
94	0x3ea6756f	0.3251147
95	0x3faeba42	1.3650591
96	0x3ef07bf4	0.4696957
97	0xbf69d70b	-0.91343755
98	0xbea777d7	-0.32708618
99	0xbeedc269	-0.46437386
100	0x3ef83e5b	0.48485073
101	0xbd537b46	-0.051631235
102	0xbd4ac2ec	-0.0495023
103	0x3f500f2c	0.8127315
104	0x3f0cc825	0.54992896
105	0xbdf0e333	-0.11762085
106	0x3c52dbd2	0.012869792
107	0x3f23d180	0.63991547
108	0xbdbb36ac	-0.09141287
109	0x3d98e45b	0.0746543
110	0x3e4a6455	0.19764836
111	0x3eefa113	0.46802577
112	0x3f13a8bd	0.5767935
113	0xbea03efd	-0.31298056
114	0xbf8d1bf3	-1.1024154
115	0x3f1cf05a	0.6130425
116	0x3e234e68	0.15947878
117	0xbe11c450	-0.14235044
118	0x3f0da717	0.55333084
119	0x3f832c93	1.0247978
120	0xbe810661	-0.2520018
121	0x3c987e98	0.018615052
122	0xbf010cc6	-0.50410116
123	0xbebe60da	-0.37183267
124	0xbe89ad9c	-0.26890266
125	0x3f12d2d0	0.57352924
126	0x3f36ac12	0.7135631
127	0x3eeb3624	0.45939744
128	0x3f2b04b5	0.6680406
129	0x3f6c7b4a	0.92375624
130	0xbe8daf56	-0.27672833
131	0x3f5ef094	0.87085843
132	0xbec5e522	-0.38651377
133	0x3f2112a4	0.6291907
134	0x3ecd87ae	0.40142578
135	0xbea14f13	-0.3150564
136	0x3ec7ea07	0.39045736
137	0x3e926867	0.28595278
138	0xbdb9579f	-0.090499155
139	0xbd8d5c58	-0.06902379
140	0xbdb493bc	-0.088172406
141	0xbe9c595f	-0.30536935
142	0xbe7dfdae	-0.24803802
143	0xbc8d6111	-0.017258199
144	0xbf2b68a3	-0.6695654
145	0x3d8833a9	0.066504784
146	0xbeb51f5b	-0.35375485
147	0xbf326e59	-0.6969963
148	0x3ec0dccb	0.37668452
149	0xbe7b1975	-0.2452143
150	0xbcaf6776	-0.021411639
151	0xbf3bba7c	-0.7333143
152	0xbe198f1d	-0.14996
153	0xbe8d2cdc	-0.27573287
154	0x3f175adc	0.59123015
155	0xbd5829f4	-0.052774385
156	0xbe9ad1b4	-0.30238116
157	0xbee1afd3	-0.44079456
158	0xbe838a31	-0.2569137
159	0xbe888478	-0.26663566
160	0x3e3ede3e	0.18639466
161	0xbefb77fb	-0.49114975
162	0x3d4033dc	0.046924457
163	0x3d0cb800	0.034355164
164	0xbced9ee0	-0.029006422
165	0x3d690c00	0.05689621
166	0xbdfae986	-0.12251572
167	0x3db4f67a	0.08836074
168	0x3d4cc990	0.049996912
169	0x3d0cd600	0.034383774
170	0x3d4d8c80	0.05018282
171	0xbdcbd0a0	-0.099519014
172	0xbdcb90aa	-0.09939702
173	0xbdfe9901	-0.12431527
174	0x3bd10ae0	0.00637947
175	0xbd4e00f8	-0.050293893
176	0xbdf4ee8d	-0.119595625
177	0xbd582bca	-0.052776136
178	0xbd0adf18	-0.033904165
179	0xbd228ff2	-0.03968806
180	0xbe09cc16	-0.13456759
181	0xbdf64473	-0.120247744
182	0x3d92bcc6	0.07164912
183	0xbc0788a0	-0.00827232
184	0xbccc7274	-0.02495692
185	0xbe0a8f4f	-0.1353123
186	0x3ce15308	0.027505413
187	0x3d47e6a8	0.048803955
188	0x3daa1d8a	0.083064154
189	0x3db9c210	0.090702176
190	0x3dcae0de	0.09906171
191	0xbc6f6890	-0.014612332
192	0xbdbb6368	-0.091498196
193	0xbe0836f1	-0.13302208
194	0x3d4e60b4	0.050385192
195	0xbde1072c	-0.10987696
196	0x3d705410	0.05867392
197	0xbcd0ddfc	-0.025496475
198	0x3dedd8ac	0.116135925
199	0xbdb2cb24	-0.08730152
200	0xbc966a74	-0.018361308
201	0xbde855a5	-0.113444604
202	0x3e0a6b70	0.13517547
203	0xbccb2f64	-0.024802871
204	0x3de06d76	0.10958378
205	0xbdad625b	-0.084660254
206	0xbdc3d0b5	-0.09561292
207	0xbcec4b68	-0.02884455
208	0xbdc58a78	-0.096455514
209	0xbd439d64	-0.04775752
210	0xbcd6fff0	-0.026245087
211	0xbd596d30	-0.053082645
212	0xbd95d60b	-0.07316216
213	0x3d9b0524	0.0756934
214	0xbd9ea120	-0.07745576
215	0xbd3f4950	-0.046700776
216	0xbe9f56c4	-0.31120884
217	0x3e0fc2f6	0.14039215
218	0xbf266a00	-0.65005493
219	0xbedebdd5	-0.43504205
220	0xbdf4c3cf	-0.1195141
221	0x3f128440	0.5723305
222	0xbf6f8a3c	-0.93570304
223	0x3fab3aca	1.3377316
224	0x3eb2f999	0.34956053
225	0x3f3a9a30	0.7289152
226	0xbed7b9b3	-0.42133865
227	0xbe751927	-0.23935376
228	0x3ed817b0	0.42205572
229	0x3e9fbe9f	0.3120012
230	0xbf42dbe1	-0.7611676
231	0xbf6ce58d	-0.92537767
232	0x3f6920ff	0.91065973
233	0x3f0390e4	0.5139296
234	0x3f0e303c	0.5554235
235	0xbf1a7ba9	-0.6034494
236	0x3fa466b7	1.2843846
237	0xbf832b80	-1.024765
238	0xbe916db2	-0.28404003
239	0xbf832b31	-1.0247556
240	0x3ed3eb23	0.41390333
241	0xbe95b65d	-0.29240695
242	0x3ef4d8cf	0.47821662
243	0xbe8306ee	-0.25591224
244	0xbdaff5ee	-0.08591829
245	0x3f725c30	0.94671917
246	0x3e877bad	0.26461545
247	0x3d6d9445	0.05800273
248	0x3eaa18ee	0.33222145
249	0x3ec74e33	0.3892685
250	0x3effa1a8	0.4992802
251	0x3f87e334	1.0616212
252	0x3f88eeba	1.0697854
253	0xbf267506	-0.65022314
254	0x3eecdb82	0.4626122
255	0xbf5188d3	-0.818494

l1.bias f4 [8]
0	0x3f824926	1.0178573
1	0x3f69d546	0.91341054
2	0x3f7d3e69	0.98923355
3	0xbd96552f	-0.07340466
4	0x3f832b07	1.0247506
5	0x3f9cf3b5	1.2261873
6	0x3f874e27	1.0570725
7	0xbe14eecb	-0.14544217

l2.weight f4 [8, 8]
0	0xbe31fc0a	-0.17381302
1	0xbd9735dc	-0.0738332
2	0x3e9a83f7	0.30178806
3	0x3cb33b30	0.021878809
4	0xbe43353c	-0.19063276
5	0xbe989cb0	-0.29807043
6	0x3e5bb7aa	0.21456781
7	0x3e491832	0.19638136
8	0x3fc44c76	1.5335834
9	0x3f40b5aa	0.752772
10	0x3fd948b0	1.6975307
11	0xbeb2b1c5	-0.34901252
12	0xbf61b5f1	-0.88168246
13	0x3ecac844	0.39605916
14	0xbfc60c70	-1.5472546
15	0x3d3ba276	0.04580923
16	0x3fde42bc	1.7364116
17	0xbd63e488	-0.055637866
18	0x3e61721b	0.22016184
19	0xbd2dca80	-0.042429447
20	0x3fd5998c	1.6687484
21	0xbfc140ee	-1.509794
22	0x3fd4d3eb	1.6627172
23	0x3deac8b8	0.11464065
24	0x3f100aa5	0.5626624
25	0x3e45c0da	0.19311848
26	0xbf965a28	-1.1746264
27	0xbe957de5	-0.29197612
28	0xbfa886af	-1.3166102
29	0x3f8f2908	1.1184397
30	0x3fce28ec	1.6106238
31	0x3e31415f	0.17310093
32	0xbea790ee	-0.3272776
33	0xbfb4eaa3	-1.4134105
34	0xbf696757	-0.9117331
35	0xbeaabea9	-0.33348587
36	0xbf4fc109	-0.81153923
37	0x3fad1082	1.3520663
38	0x3fd7f996	1.6873043
39	0xbe7f07ad	-0.24905272
40	0x3fe8d0b5	1.8188692
41	0x3ed283aa	0.41116077
42	0xbfe2f7a2	-1.7731822
43	0x3eacc40f	0.3374333
44	0x3f09797c	0.53700995
45	0x3f1e54f9	0.6184841
46	0xbeb8b15a	-0.36072809
47	0x3e83e50a	0.2576068
48	0x3fb6b0d4	1.4272714
49	0xbf4e6fba	-0.8063923
50	0x3e5f0bfb	0.21781914
51	0x3c4c53e0	0.012471169
52	0xbe89ac26	-0.2688915
53	0x3c065a4a	0.0082002375
54	0xbf58879e	-0.84581935
55	0x3e356ef2	0.17718104
56	0xbe06df7a	-0.13171187
57	0x3fde228a	1.735429
58	0x3fc7a14b	1.5596098
59	0x3e8a8601	0.27055362
60	0x3fadbd79	1.3573447
61	0x3fca7b82	1.5818942
62	0x3edb1388	0.4278834
63	0x3e202132	0.15637663

l2.bias f4 [8]
0	0xbe3ec6a1	-0.18630458
1	0x3ef70dfa	0.4825285
2	0x3f4553bb	0.7708089
3	0x3f511f8c	0.8168876
4	0x3f2763d6	0.6538671
5	0xbe3f6bdd	-0.1869349
6	0xbc55cd97	-0.013049505
7	0x3e7821f5	0.24231704

l3.weight f4 [9, 8]
0	0x3df66724	0.12031391
1	0xbf807143	-1.0034565
2	0x3f459897	0.7718596
3	0xbfb8c225	-1.4434248
4	0xbf768bc0	-0.9630699
5	0xbfffcb32	-1.9983885
6	0xbfa286dd	-1.2697407
7	0x3f3d5b82	0.73967755
8	0x3b73ff80	0.0037231147
9	0x3fc058ec	1.5027137
10	0xbfb7faa0	-1.437336
11	0xbea6ccff	-0.32578275
12	0xbfcc8831	-1.5979062
13	0xbfc94891	-1.572527
14	0xbf94ecb1	-1.1634732
15	0x3f0bc839	0.5460239
16	0x3db77220	0.089573145
17	0xbfc5999d	-1.5437504
18	0xbfe66069	-1.7998172
19	0x3e03c0e2	0.12866548
20	0xbf37e670	-0.71835995
21	0xbe772cd4	-0.24138194
22	0xbf5318cd	-0.8245972
23	0x3f3e2bd7	0.74285644
24	0xbe9fd9ce	-0.3122086
25	0x3f1e0334	0.6172364
26	0xbd991175	-0.07474033
27	0xc0154a25	-2.3326504
28	0xc0118873	-2.2739532
29	0x3e692e10	0.22771478
30	0x3f44f000	0.7692871
31	0xbeb5d562	-0.3551436
32	0xbeae9159	-0.34095266
33	0x3f549812	0.8304454
34	0xbbed2795	-0.0072373846
35	0x3ea65ece	0.32494205
36	0xbffaa0be	-1.9580305
37	0x3e74d80e	0.23910543
38	0x3f323b1d	0.6962145
39	0xc00e8928	-2.2271214
40	0x3e309eca	0.17248073
41	0xbe78950c	-0.24275607
42	0xbdb5bbd3	-0.08873715
43	0x3f19619a	0.59914553
44	0x3eb93412	0.3617254
45	0xbd2b68bd	-0.041847933
46	0x3db08798	0.086196125
47	0xbfbc8005	-1.4726568
48	0x3da899e8	0.0823248
49	0xbf12a0ec	-0.572768
50	0xbf95dfd1	-1.1708928
51	0x3f8b0043	1.0859455
52	0x3fb1dc1f	1.3895301
53	0xbffd0aaf	-1.9768885
54	0xbfdacc51	-1.7093602
55	0xbee6a384	-0.45046628
56	0x3cbd40d0	0.023102194
57	0xc01e5531	-2.4739497
58	0x3f92059c	1.1407962
59	0xbf2ac1ad	-0.66701776
60	0xbf8e65ae	-1.112478
61	0x3e4af300	0.1981926
62	0xbeb16faf	-0.3465552
63	0xbf7989fc	-0.9747617
64	0xbe904924	-0.28180802
65	0xbe73d122	-0.23810247
66	0xbebe8fc3	-0.37219056
67	0x3d505002	0.05085755
68	0xc000631c	-2.0060492
69	0x3eb3d6fb	0.35124955
70	0xbee46542	-0.44608504
71	0xbccc6e11	-0.024954828

l3.bias f4 [9]
0	0x3f202991	0.62563425
1	0x3e7e51e3	0.24835925
2	0xbe6e3a58	-0.23264444
3	0xbe4693a9	-0.19392265
4	0xbcc95abb	-0.024579396
5	0xbe5a1595	-0.21297295
6	0x3f00d6d0	0.5032778
7	0xbc37b588	-0.011212714
8	0xbe8db950	-0.27680445
